param/inverted_pole_testdqn.ckpt (torch_old, 401248 bytes, 8 tensors)

net.0.weight f4 [128, 2]
000000 30 f7 4e 3d ad 4a 85 bf 26 95 40 bf b7 1a df 3f
       0.050528705 -1.0413414 -0.7522758 1.7430028
000010 85 14 0c 3d 51 59 51 3f 62 2e 06 be c8 16 a9 3d
       0.034199256 0.8177691 -0.13103631 0.08256298
000020 56 cb d9 be dd e1 a9 3f 73 97 aa bd bc 42 a5 3f
       -0.42537946 1.3272053 -0.08329668 1.2910991
000030 22 67 f8 bf 2d 6d a9 3e 2b 4c ff 3c f1 ee dd be
       -1.9406474 0.33091107 0.03116425 -0.4334636
000040 ca ab 1b be ed c0 1d 3f ec 15 8b bf 49 73 c6 be
       -0.15202251 0.61622506 -1.0866065 -0.3875983
000050 9d 00 46 3f 8b 5d d8 be 2d 8b cc 3f 6b 93 b2 bf
       0.77344686 -0.42258868 1.5979973 -1.3951238
000060 3a 54 b4 3d 0a 17 b0 3f 6e e8 19 bf 70 a9 92 bf
       0.088051274 1.3757031 -0.60120285 -1.1457958
000070 7e 11 4a bf 1a 94 a4 bf f4 9d ae 3f ed 01 f8 3f
       -0.7893294 -1.2857697 1.3641953 1.9375588
000080 09 fb 1e bf 00 8c 5b bf 93 69 dd 3f 72 ee 91 bf
       -0.621018 -0.857605 1.7297844 -1.1400893
000090 9d 4f c1 3f ec 2e fb be b8 83 83 bf df 8d 00 c0
       1.5102421 -0.49059236 -1.0274572 -2.0086591
0000a0 40 81 75 bd df e9 35 3f dc 8d 1d c0 ab c1 94 be
       -0.059937716 0.71059984 -2.4617834 -0.29054007
0000b0 be 4b 9f bf 61 0e 07 3f 1b f8 fa be ea cc e4 bf
       -1.244499 0.52756315 -0.49017414 -1.7875035
0000c0 1f 04 81 be bc ef 34 bf b3 a5 18 3e 03 c6 81 bf
       -0.25198457 -0.70678306 0.14906959 -1.0138553
0000d0 12 b3 5f be 8a d5 44 3f fe eb 86 bf e3 66 0f bf
       -0.21845654 0.76888335 -1.0540769 -0.5601637
0000e0 de 0c b8 bc 7e ef 48 bf c7 49 ad bf ff a8 90 3e
       -0.022467073 -0.78490436 -1.353814 0.28253934
0000f0 59 d2 57 3f 09 05 4b bf c4 33 fa be 37 79 c2 bf
       0.8430534 -0.7930456 -0.4886762 -1.5193242
000100 99 41 74 3f b7 6b 09 bf 2c 3c 7e 3d 89 50 aa bf
       0.95412594 -0.53679985 0.062069103 -1.3305827
000110 5b 80 b5 3e f3 06 88 bc cc 1c b0 bf 20 d8 2f bf
       0.3544949 -0.016604876 -1.3758788 -0.68689156
000120 ff 67 9f bf 90 0b 3e bf 5d cf 1a bd 8b 2a 96 bf
       -1.2453612 -0.7423639 -0.037795413 -1.1731733
000130 6f a9 8a be ca 56 68 bf 0d 5f 77 bf db ae 8f bd
       -0.27082393 -0.9075743 -0.9662941 -0.07015773
000140 cd 49 12 bc 6b 1c 4a 3e 39 1b 84 bf 22 29 dd bf
       -0.008928728 0.19737403 -1.0320808 -1.7278178
000150 fb 07 69 3b 32 99 5a bf f5 9e 8b be 03 e5 7b bf
       0.0035557735 -0.8539001 -0.27269712 -0.9839632
000160 49 0f 67 3f 9b a4 eb 3e 69 5c a9 3c e1 21 22 bf
       0.902577 0.46024022 0.020673947 -0.63332945
000170 83 40 4e be 09 d8 5a bf 2a f5 c8 3d 87 0a d3 3f
       -0.20141797 -0.85485893 0.09812386 1.6487588
000180 ee eb 54 be 2c 66 bf be 43 07 88 be 5c 59 ac 3e
       -0.20793125 -0.37382638 -0.2656804 0.33661926
000190 a9 7a 9e 3d 95 89 94 3f 1e 81 47 bf 2e 87 31 bf
       0.07738239 1.1604487 -0.7793139 -0.6934689
0001a0 df 00 55 bf 86 c2 42 3f bc bf b1 be dd 06 ed 3f
       -0.83204454 0.7607807 -0.34716594 1.851772
0001b0 45 b5 a4 3d fb 10 8a bf 07 72 0b bf 8e f0 33 3f
       0.08042387 -1.0786432 -0.54470867 0.7028893
0001c0 4b 6f db bc 41 13 06 3f c6 b4 fa bf c1 6a 6b bf
       -0.026786467 0.5237313 -1.9586418 -0.9195977
0001d0 54 19 b4 3d 45 fd b6 3f 6f fc fc be 15 a1 cc bf
       0.087938935 1.4296042 -0.49411342 -1.5986658
0001e0 dc bb e8 bd 97 bc 08 c0 0b 4f 22 40 68 ae e1 3f
       -0.11363956 -2.1365106 2.5360744 1.763135
0001f0 ae cd 53 3f 3a 80 60 bf ac fa 82 be 07 64 41 bf
       0.8273572 -0.8769566 -0.25581872 -0.75543255
000200 4c 85 e9 be a6 ff 86 bf 3d b6 04 3e f3 4e 5f 3f
       -0.4560951 -1.0546768 0.12960143 0.8722984
000210 46 83 10 bf 16 98 a8 be 2d 92 1b bf 07 77 e5 3f
       -0.5645031 -0.32928532 -0.6076992 1.7926949
000220 39 60 88 3e d2 35 57 3e 1d cd 6a bf 33 cf dd bf
       0.26635912 0.21016625 -0.9171923 -1.7328857
000230 8b 59 28 c0 af cc 9a 3e 0c e6 db 3a 89 9c a8 3f
       -2.6304653 0.30234286 0.0016776933 1.3172771
000240 54 26 ad 3d b1 97 16 bf 34 dd de 3d e4 3b ac 3f
       0.08454576 -0.5882521 0.10882035 1.3455777
000250 dc 41 56 be b8 9a 89 3f 50 0b 49 bf 71 d1 aa 3f
       -0.20923561 1.0750341 -0.78532887 1.3345166
000260 3c 4b 03 3e 33 59 98 bf 5a a7 f0 3e 23 9b 7a 3e
       0.12821668 -1.1902221 0.4700268 0.24473242
000270 5f f2 9e 3d 28 f7 01 40 68 b0 06 c0 84 1a af 3e
       0.07761072 2.0307102 -2.104517 0.34199917
000280 73 11 1d bf 9d 39 52 3f f5 4f 65 bf 0f 06 d9 be
       -0.6135475 0.8211916 -0.8957513 -0.42387435
000290 23 ce f8 3d 4b 47 19 bd ba 83 54 3f 64 b3 c4 be
       0.121486925 -0.037421506 0.830135 -0.38418114
0002a0 5c ae 9a bf ed 88 97 be 4c 61 9f ba 12 e9 b3 be
       -1.208446 -0.29596654 -0.0012159734 -0.35138756
0002b0 28 ca 09 3d c4 28 92 3f 45 e7 3a 3d 91 15 82 3f
       0.033640057 1.1418691 0.045630712 1.0162832
0002c0 3f 93 0a c0 64 26 83 3f a1 00 a2 be 3c cc 06 3f
       -2.1652372 1.0246091 -0.31641105 0.52655387
0002d0 39 70 a5 bb 3a b2 50 bf 61 1e 0b be 6f e2 70 3f
       -0.0050487784 -0.8152195 -0.13585807 0.9409551
0002e0 78 0c 7f 3f 25 0e 8b 3f ba f7 a8 be a3 1a 3e 3f
       0.996284 1.0863692 -0.330015 0.74259394
0002f0 99 16 d5 3f 97 4c 47 3f 80 35 d4 be 24 4c 96 be
       1.6647521 0.7785124 -0.41447067 -0.29354966
000300 9e 66 ed 3f 94 08 0e bf a2 e7 a2 bf 26 7b 4d bf
       1.8546941 -0.5548184 -1.2726939 -0.80266035
000310 cc a8 96 3f 3f ae 39 bc ad 77 ae bd f7 56 93 bf
       1.1770263 -0.011333047 -0.0851892 -1.1510915
000320 f3 35 c9 be 54 2d 1c bf e6 a5 a1 3d af ed 2b 3c
       -0.39298972 -0.61006665 0.07892971 0.01049368
000330 80 a8 94 be 0e 97 8c bf b6 c1 02 bd 14 ef 1b bf
       -0.29034805 -1.0983598 -0.03192302 -0.6091168
000340 db 67 03 3e b2 26 18 3f a0 b5 bf 3f 24 ef 56 3e
       0.12832586 0.59434044 1.4977303 0.20989662
000350 f3 c4 82 3f 6d 00 dc 3e ce 02 f6 3d 76 52 0e 40
       1.0216354 0.42969075 0.12012254 2.223783
000360 71 12 7a 3d 02 7b 45 3d 80 cf af 3d 64 05 ba 3e
       0.061052743 0.048213013 0.08584499 0.36332238
000370 bd 27 29 3e 8b 56 8d 3f 5c 8f f1 be dc 41 da 3f
       0.16519065 1.1042036 -0.47179687 1.7051349
000380 bb b1 9f bf 1a 33 a3 be 43 87 32 3c 94 dd 38 3f
       -1.2476114 -0.31874925 0.010896507 0.722131
000390 86 44 ba 3e 38 32 ce bf d7 83 18 bb e4 1c eb bf
       0.36380404 -1.6109076 -0.0023271942 -1.8368192
0003a0 63 f0 44 bd 0b be 2f bf 26 a4 16 40 80 f0 48 3f
       -0.048080813 -0.6864936 2.3537688 0.78491974
0003b0 61 9a 51 bf 0b a6 e4 3e c1 c9 3d be f9 53 ab be
       -0.8187619 0.4465793 -0.18533994 -0.33462504
0003c0 ee 5d 28 3e 6a c9 25 3f 4a 9c 98 bf df f8 2a bf
       0.16442081 0.6476046 -1.1922696 -0.66786
0003d0 27 e9 b8 3d 6d 8f b1 bf 12 f6 df bd 5c 39 27 3e
       0.09028845 -1.3871895 -0.10935606 0.16330475
0003e0 f1 76 1a 3d 46 65 89 be 75 8f ac bf 43 4f c5 3f
       0.037711088 -0.26835078 -1.348128 1.5414814
0003f0 d2 5b 4c bf f5 44 36 3f 99 56 f3 be 67 fa 95 bf
       -0.79827607 0.7119897 -0.47527006 -1.1717042

net.0.bias f4 [128]
000000 34 9f 2a be cd cc cc 3d 82 55 ea bd cd cc cc 3d
       -0.16662294 0.1 -0.114420906 0.1
000010 cd cc cc 3d cd cc cc 3d cd cc cc 3d 38 0f ce bd
       0.1 0.1 0.1 -0.100614965
000020 cd cc cc 3d cd cc cc 3d e2 ae 16 be 57 7e c3 be
       0.1 0.1 -0.1471515 -0.38182327
000030 fd d0 8f be cd cc cc 3d cd cc cc 3d ef a9 af be
       -0.28089133 0.1 0.1 -0.34309337
000040 cd cc cc 3d 70 dd a8 be ed 84 62 be cd cc cc 3d
       0.1 -0.32981443 -0.2212102 0.1
000050 cd cc cc 3d cd cc cc 3d cd cc cc 3d cd cc cc 3d
       0.1 0.1 0.1 0.1
000060 cd cc cc 3d 95 dd ef be cd cc cc 3d cd cc cc 3d
       0.1 -0.4684874 0.1 0.1
000070 14 4e 77 3d cd cc cc 3d f6 b6 09 be cd cc cc 3d
       0.060377195 0.1 -0.134487 0.1
000080 28 ab 89 be 22 9f 4c be be 6d 09 bf cd cc cc 3d
       -0.26888394 -0.1998258 -0.5368308 0.1
000090 cd cc cc 3d da 8b a5 3d cd cc cc 3d cd cc cc 3d
       0.1 0.08083315 0.1 0.1
0000a0 a5 63 e0 3c cd cc cc 3d 88 0e 63 bc cd cc cc 3d
       0.027391264 0.1 -0.013858445 0.1
0000b0 b6 a1 10 be 94 be 96 bd cd cc cc 3d 96 65 9e be
       -0.14124188 -0.07360569 0.1 -0.3093688
0000c0 cd cc cc 3d cd cc cc 3d 4a 56 7d be cd cc cc 3d
       0.1 0.1 -0.24739948 0.1
0000d0 cd cc cc 3d cd cc cc 3d 3b cc 81 be cd cc cc 3d
       0.1 0.1 -0.25351128 0.1
0000e0 8f 02 a7 3d cd cc cc 3d 85 b8 8f be cd cc cc 3d
       0.08154785 0.1 -0.28070465 0.1
0000f0 cd cc cc 3d c5 de 07 be 85 f9 1d bd cd cc cc 3d
       0.1 -0.13268574 -0.03856804 0.1
000100 cd cc cc 3d 44 25 d4 be cd cc cc 3d cd cc cc 3d
       0.1 -0.4143468 0.1 0.1
000110 69 b4 56 bf cd cc cc 3d cd cc cc 3d ca fd bb bb
       -0.83869034 0.1 0.1 -0.005737041
000120 06 47 88 be bf 0a b7 be cd cc cc 3d cd cc cc 3d
       -0.26616687 -0.35750386 0.1 0.1
000130 b2 e6 ce be af 56 9e be 6c 23 80 be cd cc cc 3d
       -0.40410382 -0.3092551 -0.25027025 0.1
000140 cd cc cc 3d cd cc cc 3d 8e 74 c3 be 38 61 2f be
       0.1 0.1 -0.38174862 -0.1712693
000150 cd cc cc 3d 03 aa b5 bb 5e 81 dd bd 62 d5 16 be
       0.1 -0.0055439486 -0.108156905 -0.14729837
000160 cd cc cc 3d cd cc cc 3d 94 11 8d 3b cd cc cc 3d
       0.1 0.1 0.004305074 0.1
000170 87 57 34 be cd cc cc 3d 1f 4d 12 be cd cc cc 3d
       -0.17611514 0.1 -0.14287232 0.1
000180 3a 59 0e bd cd cc cc 3d ef e5 f4 bd cd cc cc 3d
       -0.03475306 0.1 -0.11957919 0.1
000190 cd cc cc 3d e1 80 7f be cd cc cc 3d cd cc cc 3d
       0.1 -0.24951507 0.1 0.1
0001a0 23 cf cf be 9f de 88 be 1a b4 e5 bd 87 71 c1 be
       -0.4058772 -0.26732346 -0.11215992 -0.37781927
0001b0 fc c0 50 be 2a af 8c be 9a 8a 05 bf cd cc cc 3d
       -0.20386118 -0.2747739 -0.52164614 0.1
0001c0 cd cc cc 3d 1e bc 1b bd 13 1b 93 bf d9 64 dc 3b
       0.1 -0.0380212 -1.1492637 0.006725889
0001d0 cd cc cc 3d 32 7a 1a be cd cc cc 3d cd cc cc 3d
       0.1 -0.15085676 0.1 0.1
0001e0 a5 b7 07 bf cd cc cc 3d 07 00 94 be cd cc cc 3d
       -0.53014594 0.1 -0.2890627 0.1
0001f0 9a c2 f6 bd cd cc cc 3d cd cc cc 3d cd cc cc 3d
       -0.12048836 0.1 0.1 0.1

net.2.weight f4 [256, 128]
000000 e7 65 35 bd 09 9e 79 be 4f 50 ef bc 1b f5 95 3e
       -0.044286635 -0.24376692 -0.029213099 0.29288563
000010 51 b7 12 bd 00 86 18 be 14 23 0a be 0a d0 8b 3e
       -0.035819355 -0.14894867 -0.13489944 0.2730716
000020 a0 ca 79 3e 0d 0a 50 3d 6a aa 93 3c a3 06 cf bd
       0.24393702 0.050790835 0.018025596 -0.10108688
000030 52 0e 97 3c 4d b3 4e 3d 27 a7 b6 bc 9a ec 95 bd
       0.018439446 0.050463963 -0.022296501 -0.07320519
000040 c3 c1 d1 be f4 b9 81 3d d4 65 eb 3d d5 fd 79 bc
       -0.4096814 0.06334296 0.114940315 -0.015258272
000050 ba ab 1a 3e d5 ce e6 3d 5c d8 18 3e a7 f6 54 3d
       0.15104571 0.11269919 0.14926285 0.05199304
000060 2a 62 d0 3d 50 c6 74 bc 0a b9 95 bd 17 9e 42 3d
       0.10174973 -0.0149398595 -0.07310684 0.047514047
000070 0d 63 95 bc d6 5e 9c 3d ca c2 e0 bc 46 c4 55 be
       -0.018235708 0.07635276 -0.027436633 -0.20875654
000080 cf 3d 43 bd dc 04 98 3d 92 43 9c be 98 6a 69 be
       -0.047666367 0.07422802 -0.30520302 -0.22794569
000090 03 f6 04 3e dc d1 5b be ed d4 43 3e 8c e3 0e be
       0.12984471 -0.21466774 0.19124193 -0.1395399
0000a0 a0 f7 50 bd 21 f1 41 3e f3 cd b0 bd e5 0b 4e 3e
       -0.051017404 0.1893964 -0.08633032 0.20121725
0000b0 2f 70 62 be 04 8f 83 3d 6b 62 02 be 99 0d 5f 3e
       -0.22113107 0.064237624 -0.12732856 0.21782531
0000c0 d9 a3 f9 3d 50 65 be 3d d6 19 0d be ad 07 86 bc
       0.121894546 0.092966676 -0.13779387 -0.016361082
0000d0 cb 6d 7c bd 09 db f2 3d ae 4a a4 be 46 6d 3e be
       -0.061628144 0.11858184 -0.32088226 -0.18596372
0000e0 6d 5c bf 3c 96 a2 01 3d 44 e9 9e bd 17 ed 58 bd
       0.023359502 0.031649195 -0.07759336 -0.05296048
0000f0 a7 26 13 3d a7 85 7b 3d 52 6c 03 bd 4e 00 bc bb
       0.035925534 0.061406758 -0.032085724 -0.005737341
000100 d4 71 2b be 4d 80 aa 3d 0a d0 32 3e 42 cd 36 3e
       -0.1674264 0.08325253 0.17462173 0.17851737
000110 2c bb 19 3e a5 70 22 be 1d fb 1d 3e 64 86 65 bd
       0.15012807 -0.15863283 0.15427823 -0.056036368
000120 23 fd f1 3d af e2 d5 bd 04 65 19 3e 7a 87 42 be
       0.1181586 -0.10443627 0.1497994 -0.18996993
000130 33 e7 be 3a f9 04 76 3e 88 eb 7f bd d3 c4 bf bc
       0.0014564752 0.24025334 -0.06248048 -0.023409283
000140 85 c5 9c bd 66 59 ba 3c bc 4f 31 bd 19 c5 42 be
       -0.07654861 0.022747707 -0.04328893 -0.190205
000150 a4 05 5f bc 00 98 38 bb 35 49 1d 3d 2c a8 e7 bb
       -0.013612185 -0.002816677 0.038399894 -0.007069608
000160 92 77 5b 3e 0d 54 a5 3d 44 e0 2c 3e 60 66 37 3e
       0.21432331 0.08072672 0.16882426 0.17910147
000170 9b 5c 42 be f4 01 e2 bd 29 ca 20 3e 4a c4 ab bd
       -0.18980639 -0.11035529 0.15702118 -0.083870485
000180 56 26 88 3d 43 f9 aa 3d b8 ae 94 bd 2c 9b 48 3e
       0.06647937 0.08348324 -0.072598875 0.19590443
000190 ad f1 58 3d 76 b1 8c 3d e1 21 d8 3b fa 10 fe 3c
       0.052964855 0.068697855 0.0065958356 0.031013954
0001a0 33 f3 32 3d 16 ec 41 bd 12 9c 73 3d 9f 65 e5 3c
       0.043688964 -0.04734429 0.059475012 0.028002558
0001b0 a7 56 a8 bd e3 53 42 3e ab ad 1e 3e 65 b8 07 3e
       -0.082196526 0.18977313 0.15495937 0.13253935
0001c0 9b 83 90 bd 62 da a0 3d 42 2d 22 be dd bd 25 bd
       -0.07056352 0.07854153 -0.15837577 -0.04046427
0001d0 fc 54 96 3d 61 22 62 bc ec 6d 25 3e 0b 0e 94 be
       0.07340428 -0.013802142 0.16155213 -0.28916964
0001e0 d5 5e 1e 3c 3a b9 39 be 79 86 23 bc 8c 53 89 bc
       0.009666164 -0.18137065 -0.009980791 -0.016763471
0001f0 e2 7d 17 be 17 c6 06 be 10 0c 3a 3e 70 99 35 be
       -0.14794114 -0.13161503 0.18168664 -0.17734313
000200 bf 04 16 3e e4 1b ad 3d ac 7c b6 3d bd 9e 57 3d
       0.14650248 0.08452585 0.08910498 0.05264162
000210 6e 63 0d 3d 18 ef 5d 3c 85 5f 70 3e 91 5a 21 be
       0.03451865 0.013545774 0.23473938 -0.15757205
000220 4e 2e 4e be 89 d3 e5 bd 94 a1 8a bd b4 e0 4c bd
       -0.20134851 -0.11221988 -0.067691 -0.05001898
000230 05 0f a2 3d d7 bd 50 bc b5 33 cb 3d 16 65 59 be
       0.07913021 -0.012740574 0.09921972 -0.21229967
000240 13 c8 29 be c3 e8 7e bc 47 90 9c be b9 ed 81 bd
       -0.16580229 -0.015558424 -0.30578825 -0.0634417
000250 13 a2 39 bd bd d8 2d be d5 e8 02 3d a4 fe e7 3d
       -0.04532058 -0.1697721 0.031960327 0.11327866
000260 f8 79 14 be d8 0a d9 bd 4d 5b a7 ba f0 0b 88 bd
       -0.14499652 -0.105977714 -0.0012768299 -0.06642902
000270 d0 70 dd bc 92 4a f2 bd 8a 0b 11 bd af 66 ea bd
       -0.027031332 -0.118306294 -0.035411395 -0.114453666
000280 a3 2c 46 be d0 77 e3 3d 75 2b 06 bd 00 0e 3d 3d
       -0.19352965 0.11106837 -0.032756288 0.04615593
000290 d7 f4 5c bd d4 b8 e8 bc b1 82 92 be bc 37 e1 bd
       -0.053944435 -0.028408445 -0.28615335 -0.109969586
0002a0 4f 8d 8a 3e 2f 57 43 3e b1 62 cb 3b 78 20 8f 3d
       0.27060935 0.19076227 0.0062068333 0.06988615
0002b0 4a 0d 88 3d 56 12 0f be 74 d7 58 bd 58 02 3d bd
       0.0664316 -0.13971838 -0.052939847 -0.046144813
0002c0 90 02 2b 3c 52 f9 3c 3d 6e 3c 9e be 56 38 e7 bd
       0.010437623 0.046136208 -0.3090548 -0.11290042
0002d0 f5 19 96 be 4f 5f 03 3e 98 32 42 bb ef 79 e4 3d
       -0.2931668 0.12829326 -0.0029632207 0.111560695
0002e0 7e 8f 44 be 41 db 03 be 9c 79 14 be 77 35 85 3d
       -0.19195363 -0.12876607 -0.14499515 0.06504338
0002f0 3d f4 6f 3b 2c 4a ae bd 4c 23 41 3e 87 ca 24 3d
       0.0036614083 -0.08510241 0.18861121 0.040232208
000300 e5 4e 66 3d 40 80 46 3e 1b dd 0c be 9f 75 3b 3d
       0.056227583 0.19384861 -0.1375622 0.04576647
000310 0d 73 20 3e 1d 63 ad 3c a7 89 7f 3e 23 ac 3f 3d
       0.15668888 0.021165425 0.24954854 0.04679502
000320 43 98 25 3c 40 c1 8e 3d 95 e2 ad 3d cc b3 52 3c
       0.010107103 0.06970453 0.08490483 0.01286025
000330 8e 59 f5 bd 50 f7 f1 bd 27 80 1f 3d a4 65 7d bc
       -0.11979972 -0.11814749 0.038940575 -0.015466128
000340 95 06 ad bd 6e 31 03 be d5 38 3a 3e 2a 3c 70 bb
       -0.08448521 -0.12811825 0.18185742 -0.0036656954
000350 8b 8a 4d be 30 47 29 3e 07 4c ac 3d c4 7b ec 3d
       -0.20072381 0.16531062 0.084129386 0.11547044
000360 bd 9e 2f 3e 13 a8 b8 bd e0 15 76 bd 67 49 b3 bc
       0.17150398 -0.090164326 -0.060079455 -0.021885587
000370 1e 42 0d bd 4e d5 4a 3d f0 30 54 be 64 d3 6e bd
       -0.034486882 0.04951983 -0.20721793 -0.058307067
000380 6d a9 11 be 4a 83 2e bd e9 12 98 3d 26 aa 6a 3d
       -0.14224787 -0.042605676 0.07425482 0.057291172
000390 f0 7c a3 3e a7 9b 96 3d bd ed b8 3d 51 88 84 be
       0.31931257 0.07353907 0.0902972 -0.2588525
0003a0 45 f4 bb bd d9 dd 55 3e 6b 66 10 3e 68 5a e2 bd
       -0.0917745 0.2088541 0.1410157 -0.110524
0003b0 f6 7f 67 3d 61 d4 64 be 65 2b b8 3d ca 97 09 3e
       0.056518517 -0.22346641 0.08992652 0.13436809
0003c0 4b 06 96 3d 21 d0 78 3e 51 b0 7d bb 4c 44 39 3e
       0.07325419 0.24298145 -0.003870983 0.1809246
0003d0 0b df 4f be 96 52 11 3d 17 4d 02 be 2c a4 10 be
       -0.20299928 0.03547915 -0.1272472 -0.14125127
0003e0 f0 78 f1 3d 40 19 aa 3d 8e e2 a8 bd dd 19 3b be
       0.11790645 0.08305597 -0.08246337 -0.18271585
0003f0 2d b7 d4 bd 76 5e 24 3e ce 28 40 be 05 09 1f 3e
       -0.103865005 0.16051659 -0.18765566 0.15530784

net.2.bias f4 [256]
000000 93 53 b2 3d cd cc cc 3d cd cc cc 3d 61 27 ac 3d
       0.08707347 0.1 0.1 0.084059484
000010 7a be 8b 3d 38 8d c1 3d b2 76 03 3d cd cc cc 3d
       0.0682344 0.094507635 0.03209562 0.1
000020 b6 eb 3c 3d cd cc cc 3d cd cc cc 3d cd cc cc 3d
       0.04612323 0.1 0.1 0.1
000030 cd cc cc 3d 70 be 8b 3d d2 60 4d 3d ac 65 57 3d
       0.1 0.068234324 0.050141163 0.052587196
000040 ac 5f b4 3d ea 04 09 3d ea 96 bb 3d b1 49 53 3d
       0.088073105 0.033451952 0.09159644 0.05158395
000050 b3 71 ab 3d 32 80 c0 3d 71 13 80 3d 99 62 6e 3d
       0.08371296 0.09399451 0.06253708 0.0581995
000060 67 19 00 3d fe f1 8b 3d 2f c8 6e 3d 2f 82 8b 3d
       0.031274226 0.06833266 0.05829638 0.0681194
000070 68 3a 6a 3d cd cc cc 3d 85 0a 80 3d 47 56 9b 3d
       0.057184607 0.1 0.062520064 0.075848155
000080 c2 0e 8a 3d cd cc cc 3d 83 9d a5 3d cd cc cc 3d
       0.06741096 0.1 0.080866836 0.1
000090 b8 39 53 3d cd cc cc 3d cd cc cc 3d e6 ac 68 3e
       0.051568717 0.1 0.1 0.22722206
0000a0 12 54 a9 3b cd cc cc 3d c3 86 88 3d 86 b2 8a 3d
       0.0051674927 0.1 0.06666329 0.06772332
0000b0 69 36 c5 3d 9a 08 98 3d a6 04 f9 3c a7 b5 9b 3d
       0.096295185 0.074235156 0.030397724 0.07603007
0000c0 2a 9c 81 3d cd cc cc 3d 71 72 83 3d cd cc cc 3d
       0.06328614 0.1 0.06418312 0.1
0000d0 6a be 8b 3d 0a 29 b4 3d 90 84 af 3d f5 ad 39 3d
       0.06823428 0.0879689 0.08570206 0.045331914
0000e0 cd cc cc 3d f2 bd 2f 3d a5 a1 62 3e 27 34 b3 3d
       0.1 0.042905755 0.22131975 0.08750182
0000f0 cd cc cc 3d f3 82 b3 3d 20 9d c3 3d 06 da b4 3d
       0.1 0.08765211 0.095514536 0.08830647
000100 bb c5 a5 3d 38 d9 92 3d a3 b8 cc 3d cd cc cc 3d
       0.08094355 0.071703374 0.09996154 0.1
000110 4b 02 8c 3d d9 6f 9b 3d c0 c6 bf 3d cd cc cc 3d
       0.06836375 0.075896926 0.093640804 0.1
000120 3a 35 63 3d 9f cb 85 3d 3d cb ab 3d ac 8f b1 3d
       0.055470683 0.06532978 0.08388374 0.08669981
000130 9a 0c cc 3d cd cc cc 3d cd cc cc 3d cd cc cc 3d
       0.09963341 0.1 0.1 0.1
000140 cd cc cc 3d fa 26 bb 3d 22 5f 86 3c cd cc cc 3d
       0.1 0.091382936 0.016402785 0.1
000150 cd cc cc 3d cd cc cc 3d cd cc cc 3d 9f a6 a6 3d
       0.1 0.1 0.1 0.08137249
000160 cd cc cc 3d 2f b1 c4 3d cd cc cc 3d 70 8e 1b 3d
       0.1 0.096041076 0.1 0.037977636
000170 78 d6 9d 3d 4a d2 a3 3d 1b 24 93 3d e8 3c 9c 3d
       0.07706922 0.07999094 0.07184621 0.076288044
000180 2d 5f 57 3e a1 be 8b 3d cd cc cc 3d cd cc cc 3d
       0.210324 0.06823469 0.1 0.1
000190 cd cc cc 3d cd cc cc 3d 08 26 a2 3d d7 82 b8 3d
       0.1 0.1 0.0791741 0.09009331
0001a0 cd cc cc 3d b1 02 92 3d e5 bf 8b 3d 74 43 9f 3d
       0.1 0.071294196 0.0682371 0.077765375
0001b0 7d be 8b 3d b2 9b a4 3d 7b 5d 07 3d cd cc cc 3d
       0.06823442 0.08037509 0.033048134 0.1
0001c0 1b f0 95 3d cd cc cc 3d 7a a6 51 3d 9e 3c c6 3d
       0.07321187 0.1 0.051184155 0.096795306
0001d0 6a be 8b 3d cd cc cc 3d 55 7d 37 3d cd cc cc 3d
       0.06823428 0.1 0.04479726 0.1
0001e0 68 4f 95 3e cd cc cc 3d b9 ee 44 3d cd cc cc 3d
       0.29162145 0.1 0.048079226 0.1
0001f0 3d 64 2a 3d 2d 08 a5 3d 0f 5b 51 3d cd cc cc 3d
       0.0415995 0.080582 0.05111223 0.1
000200 66 d3 9f 3d 73 17 62 3d cd cc cc 3d cd cc cc 3d
       0.07803993 0.055198144 0.1 0.1
000210 cd cc cc 3d a2 7f 70 3d 37 05 8c 3d 50 10 7e 3d
       0.1 0.05871547 0.06836932 0.062027276
000220 cd cc cc 3d 4d 13 a3 3d 6d 9c 92 3d cd cc cc 3d
       0.1 0.07962666 0.07158742 0.1
000230 9b ac ca 3d cd cc cc 3d cd cc cc 3d 6e 5e b7 3d
       0.09896203 0.1 0.1 0.08953558
000240 cd cc cc 3d 76 cb 91 3d cd cc cc 3d a1 08 a3 3d
       0.1 0.07118885 0.1 0.0796063
000250 69 e4 aa 3d 8b bf 8b 3d cd cc cc 3d 10 f9 e3 3c
       0.08344347 0.06823643 0.1 0.027828723
000260 4e 35 8f 3e d9 45 c4 3d 1b 28 8f 3d cd cc cc 3d
       0.27970356 0.09583635 0.069900714 0.1
000270 05 b3 c1 3d c4 cf b6 3d cd cc cc 3d 12 71 63 3d
       0.094579734 0.08926347 0.1 0.055527754
000280 cd cc cc 3d ce 5c eb 3c 34 d1 42 3d fb 54 59 3d
       0.1 0.028730776 0.047562793 0.05305956
000290 cd cc cc 3d cd cc cc 3d cd cc cc 3d 52 57 c2 3d
       0.1 0.1 0.1 0.09489311
0002a0 cd cc cc 3d 58 1c a0 3d aa 57 58 3d f6 cc 9d 3d
       0.1 0.07817906 0.052817978 0.07705109
0002b0 cd cc cc 3d 5b cd a8 3d 93 02 7e 3d 20 b8 b2 3d
       0.1 0.082422934 0.062014174 0.08726525
0002c0 ab 7a a0 3d cd cc cc 3d cd cc cc 3d b5 a1 44 3d
       0.07835897 0.1 0.1 0.04800578
0002d0 00 6c 33 3d cd cc cc 3d fc 71 91 3d bc b4 3c 3d
       0.04380417 0.1 0.07101819 0.0460708
0002e0 cc b2 83 3d 02 2a 80 3d b6 54 ec 3d 07 cb 1f 3d
       0.06430587 0.06258012 0.11539595 0.03901198
0002f0 8b 0d 81 3d 79 cf 9a 3d 27 63 8d 3d 86 05 ac 3e
       0.06301411 0.075591035 0.069036774 0.33597964
000300 4d 37 82 3d cd cc cc 3d cd cc cc 3d cd cc cc 3d
       0.06358204 0.1 0.1 0.1
000310 0d 07 9c 3d e7 34 8e 3d 62 d1 f1 3c b1 db c2 3d
       0.07618532 0.06943684 0.029518787 0.09514559
000320 cd cc cc 3d cd cc cc 3d fc dc e7 3c dc 9e d9 3c
       0.1 0.1 0.028303616 0.026565008
000330 12 82 50 3d cd cc cc 3d 85 5b 17 3d eb bc 90 3d
       0.050905295 0.1 0.036952514 0.07067283
000340 ac c8 44 3d d5 80 4f 3d cd cc cc 3d cd cc cc 3d
       0.048042938 0.050659973 0.1 0.1
000350 cd cc cc 3d cd cc cc 3d cd cc cc 3d cd cc cc 3d
       0.1 0.1 0.1 0.1
000360 cd cc cc 3d d6 5b 97 3d 22 8a c9 3d cd cc cc 3d
       0.1 0.07390563 0.098408 0.1
000370 79 e7 f4 3c 5d d7 ac 3d 88 be 8b 3d ce 18 7b 3d
       0.029895531 0.08439515 0.0682345 0.061302952
000380 bb 33 90 3d 2e 21 3d 3d a1 be 8b 3d cd cc cc 3d
       0.07041117 0.04617422 0.06823469 0.1
000390 cd cc cc 3d c3 c8 49 3d cd cc cc 3d cd cc cc 3d
       0.1 0.049263727 0.1 0.1
0003a0 cd cc cc 3d 3b 7c 1d 3d cd cc cc 3d c1 ae 9c 3d
       0.1 0.038448554 0.1 0.07650519
0003b0 59 bf c8 3d 21 0d a3 3d 87 9a a5 3d 81 e6 8d 3d
       0.09802122 0.079614885 0.080861144 0.06928731
0003c0 ca c3 36 3d cd cc cc 3d 2a 1e 5a 3d 9b 36 bb 3c
       0.044620313 0.1 0.053251423 0.022853186
0003d0 cd cc cc 3d cd cc cc 3d ae 5c b5 3d cd cc cc 3d
       0.1 0.1 0.08855568 0.1
0003e0 c2 80 62 3d 97 1b 3b 3c 8d e9 ae 3d cd cc cc 3d
       0.055298574 0.011420152 0.0854064 0.1
0003f0 a5 bb 7d 3d cd cc cc 3d cd cc cc 3d 94 cb a3 3d
       0.06194653 0.1 0.1 0.07997814

net.4.weight f4 [256, 256]
000000 a3 3e 0c bc 3f 81 e2 bd 57 9a 58 bb 06 0b 15 3d
       -0.008559856 -0.11059808 -0.0033050978 0.036387466
000010 eb d3 cc 3d 3e 22 01 3c 19 6c 3e bd db 20 24 be
       0.10001358 0.007881699 -0.04648981 -0.16028158
000020 4c 8b 51 3d 02 ff 1c 3e 46 0d b7 3d ce 46 8a bc
       0.051158234 0.15331653 0.089380786 -0.016879465
000030 00 2f 59 3d 4c 50 21 bd 78 23 c2 bc 7b 60 24 bd
       0.05302334 -0.039383218 -0.023698553 -0.040131073
000040 f4 65 aa bb 2b de 12 be 98 d1 95 bd b3 e6 91 bd
       -0.005200142 -0.14342563 -0.073153675 -0.071240805
000050 25 14 79 3a 5b 45 08 3c db f6 45 3b 31 47 96 bd
       0.0009501598 0.008317317 0.0030206952 -0.073377974
000060 ad 19 49 3d 68 27 e2 3d e3 ca cd 3d ee 60 c8 bd
       0.049096752 0.110426724 0.10048463 -0.09784113
000070 71 9d d6 3d cd dc 7e bd 73 8e 96 3c 01 7d 18 bd
       0.10479248 -0.06222229 0.018378472 -0.037228588
000080 d3 44 27 bb 91 82 0e 3d 3c dc 28 be 7f 7e 84 bd
       -0.00255232 0.034792487 -0.16490263 -0.0646944
000090 a4 60 71 3d 8d f2 e1 3c a6 02 4e 3d ae 3e 0c 3c
       0.058930054 0.027581478 0.050295494 0.008559866
0000a0 49 d3 86 bd c8 c0 d3 bd 16 cc 62 bd a2 3c df 3d
       -0.06583268 -0.103395045 -0.055370413 0.10900237
0000b0 10 a0 93 3d 69 69 bf bd 3d 46 1c 3d 44 51 c3 3c
       0.07208264 -0.09346277 0.038152922 0.023842461
0000c0 90 29 0b 3e 93 9a 65 3d f7 0c d1 bd 8e d9 46 3d
       0.13590074 0.056055617 -0.10207551 0.04854732
0000d0 d5 2c 31 3e 77 22 c4 bd 36 8c 9b bd 8d 2f b2 bd
       0.17302258 -0.09576886 -0.075951025 -0.08700476
0000e0 0d 9a 6a 3d 79 f3 73 bd 3c 03 d8 bd 96 8f 80 3d
       0.05727582 -0.059558365 -0.10547492 0.06277387
0000f0 be 22 38 3e af 4b 83 bd 66 31 75 3d 17 e7 94 bd
       0.17982003 -0.0641092 0.059861563 -0.072706394
000100 f9 af cd 3d 52 02 2f bd c3 78 4f 3d 6b 06 c1 3b
       0.1004333 -0.042726822 0.050652277 0.0058906577
000110 21 eb 23 3d 4a 37 a5 3d 55 b2 b3 bd 63 87 0a bc
       0.04001916 0.08067186 -0.087742485 -0.00845513
000120 a7 93 84 bd 02 91 0b 3e 80 eb b5 bd cd de f1 3d
       -0.06473475 0.13629535 -0.08882809 0.11810074
000130 d2 92 af 3d d3 3e 1d be d3 11 98 3c d4 0d d1 3d
       0.085729256 -0.15355997 0.018563187 0.10207716
000140 bf fd 00 bc d0 d2 83 3c 8f 6d c5 3c a8 63 04 be
       -0.007872998 0.016091734 0.024100093 -0.12928641
000150 2f ac aa 3c 52 07 28 bc 7e f0 23 bc 65 40 37 3e
       0.020834057 -0.010255652 -0.010006068 0.17895658
000160 d8 ce 17 3c 73 9a 2f bd 9b 32 54 be 1f e7 49 bd
       0.009265624 -0.042871904 -0.2072243 -0.04929268
000170 98 37 c3 3b 2f b5 9b bc cd 8d 82 3d e8 e7 f2 bc
       0.005957555 -0.019007294 0.063747026 -0.029651597
000180 ed 3d 66 bd 7f ae a2 bd 4a 20 f3 3c 07 f6 19 3d
       -0.0562114 -0.07943439 0.029678483 0.037588146
000190 cd 51 c8 bd c5 aa 16 3d 42 43 1e 3d 9e 31 be 3b
       -0.09781227 0.036783952 0.03863836 0.0058042547
0001a0 cd 62 e1 3b 1d 4d 9f 3d 31 4f 2a 3d ed a7 0e bd
       0.006878233 0.0777838 0.04157943 -0.034828115
0001b0 4f d0 f7 bd 73 08 a5 bc d9 30 7f 3d e5 cf c3 3d
       -0.121002786 -0.02014563 0.062302444 0.09561137
0001c0 87 65 69 bd 08 5a 0f 3e 4f f6 20 be 41 6e 85 bd
       -0.05698159 0.13999188 -0.1571896 -0.0651517
0001d0 77 fe fc bc 3c 27 0b 3c 4e f9 a7 bd 24 8c a4 3e
       -0.030883057 0.008493241 -0.08201848 0.3213817
0001e0 fc 82 fa 3d 5d 6e 46 3d c3 fe 86 3b e1 69 38 be
       0.122320145 0.048445094 0.0041197254 -0.1800914
0001f0 14 71 7f bd 32 9f e2 bd 5f d1 0b bd 44 9b e5 3d
       -0.0623637 -0.1106552 -0.03413522 0.11211255
000200 93 f4 e1 3d f2 cb d9 3c 2a 5d 51 3d c7 4e 10 bd
       0.11032977 0.026586507 0.05111424 -0.035231378
000210 22 56 11 3e 6f c4 27 bb 27 0c 12 bd e4 c7 95 bd
       0.14193013 -0.0025599261 -0.03565612 -0.07313517
000220 84 ea b1 bd 93 25 10 be ba cd dc bd 62 74 45 bd
       -0.086873084 -0.14076833 -0.10781427 -0.048206694
000230 1c c0 35 be b6 30 24 3c f4 0a ac ba a6 04 71 3e
       -0.17749065 0.010021379 -0.0013125823 0.2353693
000240 ba ac c7 bc 4f 23 8d bd a5 d7 77 3d 0c 1d 26 bc
       -0.024374355 -0.068915 0.06050839 -0.010138761
000250 87 14 fe 3d ba 22 e2 3c 3b e8 7e 3d de f8 b6 bd
       0.12406259 0.02760445 0.06223319 -0.089341864
000260 c6 43 70 bd 5b ce 82 be 50 28 96 bd 3e f4 e7 3d
       -0.058658384 -0.25548062 -0.07331908 0.113258824
000270 3b 85 56 3e e8 48 db 3d f0 37 58 3d 33 ef 57 bc
       0.20949261 0.10707265 0.05278772 -0.013179588
000280 c6 8e 9e 3d a1 20 b2 bd 2f 83 4a 3d e1 61 6a 3c
       0.077420756 -0.0869763 0.049441513 0.014305563
000290 e2 d6 dd bd f1 f6 13 be 3a 0a 3c 3d 81 44 0d 3d
       -0.10832001 -0.1444967 0.04590819 0.03448916
0002a0 6a 0c 52 bd ff 55 22 3d 43 c1 3f be 49 64 54 3e
       -0.05128137 0.039632794 -0.18726067 0.20741381
0002b0 79 14 a3 bd b6 73 c5 3d 3e d0 e4 bd a9 8d ee 3d
       -0.07962889 0.09641211 -0.111725315 0.11648113
0002c0 dc 32 21 3d e9 60 0f bd d5 77 f7 bc bf 84 96 bd
       0.039355144 -0.03500453 -0.030208508 -0.07349538
0002d0 8c 80 37 3c 44 a0 8b 3c 41 66 53 3e 1c 78 56 3d
       0.011200082 0.017044194 0.20644476 0.05236064
0002e0 97 e7 50 be a6 93 2f bd 1b 8b 02 3d d3 73 ea 3b
       -0.20400845 -0.042865418 0.031870943 0.0071549206
0002f0 ee 19 36 3c 3b 51 3b 3d ed d5 ca bd 7f ac 88 bd
       0.011114581 0.045731764 -0.09904084 -0.06673526
000300 b6 28 57 3d e2 7c 26 bd b9 2d 12 bd 06 ea 8e bc
       0.05252906 -0.04064644 -0.035688136 -0.017445575
000310 b8 2e cb bc 31 9a 3d bd 72 1a ad 3d 91 18 22 be
       -0.02480255 -0.046289627 0.0845231 -0.15829684
000320 51 f8 80 3d 1e 62 a2 bd 7a 78 69 3d 90 72 29 bc
       0.062973626 -0.079288706 0.05699966 -0.010342255
000330 6a 1b 0c 3e 28 dc b4 3d bd 8a 12 3e 7f 22 c7 3d
       0.13682333 0.08831054 0.14310737 0.097233765
000340 6f fe 1f 3e c3 9d 7f bd 1f 4f 81 3c 2a be 1e 3e
       0.15624402 -0.062406313 0.015784798 0.1550223
000350 f2 73 90 bc 0e 89 3b be ce 7d 8b 3d cc 72 81 3e
       -0.017633412 -0.18314001 0.06811105 0.25282896
000360 c7 91 15 3d 15 30 1a be d3 32 34 3e 0c 95 7a 3d
       0.036515977 -0.15057404 0.17597513 0.0611773
000370 31 40 b2 bd 97 d6 7d bd e0 32 b2 bd 8e a6 09 bd
       -0.0870365 -0.061972227 -0.0870111 -0.033606105
000380 90 1e 1b 3e 18 22 5f bc 80 99 ed 3c d8 2e 51 3e
       0.15148377 -0.013618968 0.029003859 0.20428026
000390 9d 0e 0f 3c 32 e3 d1 bc e3 30 25 bd 3d 68 f4 3d
       0.008731511 -0.02562103 -0.040329825 0.119339444
0003a0 31 e0 80 3d 78 da 1f be dc 58 ab 3c 23 29 b5 bd
       0.06292761 -0.15610683 0.020916395 -0.08845737
0003b0 79 94 fe 3b 54 3e 92 3d 42 1f b0 3d 70 86 a2 bd
       0.007769164 0.071407944 0.08599712 -0.07935798
0003c0 c2 b1 91 bd d8 5c 21 bd 04 ad a1 bd 97 37 87 3b
       -0.07113983 -0.039395183 -0.07894328 0.0041265
0003d0 36 ed c9 3d c5 3a 53 bd 2b 76 9a bd 6d 1c d1 bc
       0.098596975 -0.05156972 -0.0754207 -0.02552625
0003e0 e7 28 bc 3c d7 28 3e bd 1c 5c d7 bd b0 05 bb 3d
       0.022968723 -0.046425667 -0.10515615 0.09131944
0003f0 23 57 06 3e f0 2a 3f bd 4d 6d 09 be 63 51 98 3d
       0.13119178 -0.046671808 -0.13420601 0.07437398

net.4.bias f4 [256]
000000 9d e3 7e 3d 6d be 8b 3d cd cc cc 3d cd cc cc 3d
       0.062228788 0.0682343 0.1 0.1
000010 41 e8 7e 3a 63 73 7a 3d 76 f9 15 3d d7 fc f9 3c
       0.00097239396 0.061145198 0.036614858 0.030516071
000020 cd b1 ac 3d 0e c4 bf 3d 68 be 8b 3d 0c ca 8f 3d
       0.0843235 0.09363566 0.068234265 0.07020959
000030 c7 2a 57 3d cd cc cc 3d cd cc cc 3d b8 fd 18 3f
       0.05253103 0.1 0.1 0.59762144
000040 bc aa 15 3e 5c e6 7e 3d b1 c3 e8 3d c7 be 8b 3d
       0.14615911 0.062231407 0.1136545 0.06823497
000050 24 dd 90 3d 24 c7 8c 3d 0c ad 61 3d e2 77 62 3d
       0.07073429 0.068739206 0.05509667 0.05529011
000060 b6 8f 07 3d 51 8a aa 3d cd cc cc 3d ea 3e b2 3d
       0.033096038 0.08327163 0.1 0.08703406
000070 cd cc cc 3d 94 a0 2e 3f b1 b2 97 3d 70 a2 a8 3d
       0.1 0.6821377 0.074071296 0.082341075
000080 39 7f f3 3d d8 a0 4e 3d b2 d3 9e 3d cd cc cc 3d
       0.118895 0.05044636 0.077552214 0.1
000090 46 90 81 3d c8 7d aa bc 9a 2e a9 3d a3 be 8b 3d
       0.06326346 -0.02081193 0.08260842 0.068234704
0000a0 74 be 8b 3d b7 f2 b1 3d 92 86 12 3e 63 d2 d9 3d
       0.068234354 0.08688872 0.14309147 0.10635831
0000b0 cd cc cc 3d 2c 02 b8 3d e8 33 7c 3d cd cc cc 3d
       0.1 0.08984789 0.06157294 0.1
0000c0 32 80 c0 3d c2 54 bf 3d fd 95 40 3d 7a ad b7 3d
       0.09399451 0.09342338 0.04701804 0.08968635
0000d0 cd cc cc 3d 30 56 00 3e 3c ca cc 3c d7 4c 6d 3d
       0.1 0.12532878 0.024998777 0.05793461
0000e0 cd cc cc 3d ab 03 2a 3d c6 93 85 3d cd cc cc 3d
       0.1 0.041507404 0.06522326 0.1
0000f0 95 d8 03 3f 70 1f 1b 3d 5f f0 ba 3d 95 21 7b 3c
       0.5150235 0.037871778 0.091278784 0.015327831
000100 89 23 f9 3c cd cc cc 3d 68 be 8b 3d 5a cb 63 3e
       0.030412452 0.1 0.068234265 0.22245541
000110 16 d7 3a 3e 78 be 8b 3d 27 7d 85 3d ee 83 7c 3d
       0.18246111 0.068234384 0.065180115 0.061649255
000120 60 5b a5 3d cd cc cc 3d 8c c5 b4 3d fe d6 26 3d
       0.08074069 0.1 0.088267416 0.040732376
000130 6c e9 a7 3d 69 60 15 3d 82 6b 36 3d 7e eb bb 3d
       0.081988186 0.036468897 0.04453612 0.09175776
000140 38 5d be bc cd cc cc 3d 4c cf c5 3c 98 37 7c 3d
       -0.02323781 0.1 0.024146698 0.061576456
000150 66 e3 35 3d cd cc cc 3d 7f 41 00 3e cd cc cc 3d
       0.044406317 0.1 0.12524985 0.1
000160 42 22 fb 3d 54 71 59 3d 5a 84 bb 3d 5c de d7 3d
       0.122623935 0.053086594 0.091561034 0.105404586
000170 00 69 1d 3f d0 30 75 3d 12 a0 be 3d 64 23 69 3d
       0.6148834 0.059861004 0.09307875 0.056918517
000180 69 be 8b 3d 3c 0a a9 3e 66 d1 97 3d 6d 7b 0c 3d
       0.06823427 0.3301562 0.074129865 0.034297395
000190 5b 46 6d 3d cd cc cc 3d 08 f8 07 3d 26 51 49 3e
       0.057928424 0.1 0.033195525 0.19659862
0001a0 cd cc cc 3d cd cc cc 3d cd 8f 8d 3d e1 e5 8a 3d
       0.1 0.1 0.069121934 0.06782127
0001b0 cd cc cc 3d cd cc cc 3d 95 46 ae 3d 89 6f 0a 3d
       0.1 0.1 0.08509556 0.033797774
0001c0 64 0f 3e 3d 5c eb 57 3d 9a 03 89 3e 1b cf c1 3d
       0.046401396 0.05271469 0.2676056 0.0946333
0001d0 cd cc cc 3d 17 32 92 3d 5f f4 b6 3d c7 cd 31 3f
       0.1 0.0713846 0.08933329 0.69454616
0001e0 cd cc cc 3d 71 26 68 3d c7 5b 83 3d de a2 79 3e
       0.1 0.056677286 0.064139895 0.24378535
0001f0 33 06 c0 3d 10 ed c0 3d cd cc cc 3d f8 38 88 3d
       0.093761824 0.09420216 0.1 0.06651491
000200 cf 2d ac 3d 64 0c 3e 3e e5 80 b2 3d b9 a4 15 3d
       0.08407175 0.18559414 0.08715991 0.036534045
000210 7b a0 9e 3d cd cc cc 3d 29 eb 95 3d 40 77 49 3d
       0.07745453 0.1 0.07320244 0.04918599
000220 fd 4b 77 3d 1b 94 86 3e 83 be 8b 3d cd cc cc 3d
       0.060375202 0.2628487 0.068234466 0.1
000230 69 be 8b 3d 1e 07 62 3d 8f d1 73 3d cd cc cc 3d
       0.06823427 0.05518257 0.059526023 0.1
000240 a1 f6 19 3e be bf 51 3e 70 be 8b 3d 83 bd 7e 3e
       0.15035488 0.204833 0.068234324 0.2487698
000250 6c e4 5d 3d a7 11 8e 3d cd cc cc 3d 4e 78 84 3d
       0.05417292 0.06936961 0.1 0.06468259
000260 05 cd b7 3d cd cc cc 3d 74 6d bc 3d 1e 16 65 3d
       0.08974651 0.1 0.09200564 0.055929296
000270 cd cc cc 3d 5a 12 bb 3d 31 59 d2 3d 69 be 8b 3d
       0.1 0.0913436 0.10270918 0.06823427
000280 38 9d 12 3f 2c 94 04 3e a6 e7 a3 3c 69 be 8b 3d
       0.57271147 0.12947148 0.02000792 0.06823427
000290 20 8c 74 3d 76 da 89 3d 69 be 8b 3d 2a 99 98 3d
       0.059703946 0.06731121 0.06823427 0.07451089
0002a0 de 34 93 3d 41 11 98 3d 8b 88 bb 3d 58 3d 16 3e
       0.07187818 0.07425166 0.09156903 0.14671838
0002b0 73 b2 44 3e 55 bd 80 3d c3 61 a7 3d 05 be cb 3d
       0.19208698 0.06286112 0.081729434 0.09948353
0002c0 e9 80 d0 3d 19 bf 8b 3d dd ae a6 3d 99 be 8b 3d
       0.10180838 0.06823558 0.08138821 0.06823463
0002d0 cd cc cc 3d 79 be 8b 3d 42 99 f7 3d cd cc cc 3d
       0.1 0.06823439 0.120897785 0.1
0002e0 86 5f 83 3d c6 bb b4 3d 78 13 25 3d f0 97 59 3d
       0.06414704 0.088248774 0.04030177 0.053123415
0002f0 e4 1d f7 3d cd cc cc 3d 82 f4 e2 3d ab 0f 33 3d
       0.12066248 0.1 0.110817924 0.043716114
000300 50 13 c1 3d ae 2c fa 3d 6d d9 c1 3d 6f 17 c2 3d
       0.09427512 0.12215553 0.09465299 0.09477126
000310 cd cc cc 3d ca d5 b1 3d f0 f3 22 3d 2d 5a 8a 3d
       0.1 0.08683355 0.03978342 0.06755481
000320 39 8a fa 3d ce b6 e5 3d 4d ae bb 3d e6 a6 be 3d
       0.12233395 0.11216508 0.091641046 0.09309177
000330 e8 b1 31 3e d2 03 3e 3d e5 9c 41 3d cb 55 95 3d
       0.17353022 0.046390362 0.047268767 0.07291754
000340 b6 0f a4 3d 5b 6d b9 3d 32 80 c0 3d 8b d4 74 3d
       0.08010809 0.09054061 0.09399451 0.05977301
000350 cd cc cc 3d 4f 85 8c 3d d2 18 ab 3d cd cc cc 3d
       0.1 0.06861364 0.083543435 0.1
000360 cc 5e 22 3d eb 7a 92 3d 04 cb 80 3d cd cc cc 3d
       0.039641187 0.07152351 0.06288722 0.1
000370 f6 5f c2 3d 76 80 cf 3d 68 be 8b 3d c2 51 81 3d
       0.09490959 0.10131924 0.068234265 0.06314422
000380 bc 09 9d 3d cd cc cc 3d 68 f3 9e 3d 41 9c 0f 3e
       0.07667872 0.1 0.0776127 0.1402445
000390 fd bf 09 3e 43 d7 ef 3e 70 be 8b 3d 37 c6 4c 3f
       0.13452144 0.4684392 0.068234324 0.7998995
0003a0 e6 9c 5d 3e 2f be 9f 3d a0 82 26 3e 68 18 94 3d
       0.21641883 0.077999465 0.16260767 0.072312176
0003b0 14 11 02 3e cd cc cc 3d 71 d5 94 3d 6b 8a 9d 3d
       0.12701827 0.1 0.07267273 0.07692417
0003c0 70 be 8b 3d 2d e9 29 3e 93 3f 0f 3e 79 27 5b 3d
       0.068234324 0.16592856 0.13989095 0.05350444
0003d0 cd cc cc 3d cf cc a7 3c 69 69 d7 3d d8 1b 57 3d
       0.1 0.020483403 0.10518152 0.05251679
0003e0 7d 96 cb 3d fa bf 8b 3d b9 f0 f0 3c 69 79 27 3f
       0.09940813 0.06823726 0.02941166 0.6541963
0003f0 cd cc cc 3d 7d 06 85 3c a3 88 a0 3d cd cc cc 3d
       0.1 0.016238445 0.078385614 0.1

net.6.weight f4 [3, 256]
000000 1a 7f 84 3d d6 00 08 3b 92 aa 8b 3c 92 1d 11 bd
       0.06469555 0.0020752451 0.017049108 -0.03542859
000010 3f 35 5c bc 50 82 19 3c 6d 1a 7b 3d a3 33 61 bc
       -0.013440429 0.009369448 0.0613045 -0.013745221
000020 25 7e 2b 3c ff 63 8a 3b 7d e4 f7 bd 61 a0 60 bd
       0.010467087 0.0042233462 -0.121041276 -0.05484045
000030 51 80 21 3c b1 9b 79 ba 56 c6 de bd 2d c9 b6 be
       0.009857253 -0.0009521796 -0.10877673 -0.3570036
000040 55 5d 47 bd ee a8 09 3e 31 76 80 bc 31 ce 14 3c
       -0.048672993 0.13443348 -0.015681358 0.009082363
000050 92 01 71 bd 7e 96 4d 3d 66 87 96 bc 71 ba a9 bd
       -0.05883939 0.05019235 -0.01837511 -0.08287514
000060 e8 88 b3 bd 53 a6 98 3c c5 64 0f 3d 27 e2 e3 bd
       -0.08766347 0.018633997 0.03500821 -0.111271195
000070 09 a2 b1 3d 07 27 b9 be 2e 85 94 bd 63 ec 1b bd
       0.08673484 -0.36162588 -0.072519645 -0.038067233
000080 c4 35 a8 3c cc 51 89 bc 2b fe ee 3c b4 6f d8 3d
       0.02053345 -0.016762637 0.029173931 0.10568181
000090 44 ac 22 bd 5d 56 00 3e f3 d5 50 3b b1 30 fc ba
       -0.039715067 0.12532945 0.0031865805 -0.0019240585
0000a0 5a 6b cc 3c c1 fc 9e bd 4e 3d a5 bc 1c 17 85 3b
       0.024953533 -0.07763053 -0.020170834 0.0040615927
0000b0 1d f1 15 be 7a ee a2 3d 69 cf 04 be 6c eb 02 3b
       -0.14642759 0.07955642 -0.12969746 0.0019976748
0000c0 9c 70 16 be a8 68 82 3d 41 7d 19 be 01 bf 15 3e
       -0.14691395 0.06367618 -0.14989187 0.14623643
0000d0 d8 b9 77 3d 6e da 7f bc 4f 62 99 3d 81 78 f2 bd
       0.06047997 -0.015616043 0.07489454 -0.118393905
0000e0 ac 4c 4c be 57 3f 5e bd 0c 80 83 3d b7 dd 59 3e
       -0.19951123 -0.054259624 0.064209074 0.21275984
0000f0 15 9c 91 be 43 71 01 3e 13 62 05 be d1 d8 a0 bd
       -0.28439394 0.12640862 -0.13025694 -0.078538544
000100 87 80 ff bc 6d 99 e4 bd a7 f8 fc 3c b6 6a 75 bd
       -0.031189216 -0.11162076 0.030880285 -0.05991622
000110 05 26 df bb ea 23 e6 3d e0 41 e0 bd 3c e2 82 3c
       -0.006809952 0.11237319 -0.10950065 0.015977018
000120 0a 4e 87 3d 02 66 d7 bd 49 8d 06 3e 72 33 0f ba
       0.06606682 -0.10517503 0.13139834 -0.0005462683
000130 06 84 2d 3d ba 61 8f 3d 57 f2 d9 3d cf 8f 91 3c
       0.042362235 0.07001062 0.10641926 0.017768769
000140 9f 9a 6d 3c b2 82 1e 3d 66 cd b6 3d 35 e3 f0 3d
       0.014502197 0.03869886 0.089258954 0.11762086
000150 fc 1f 7c bd 21 aa 6b 3c 54 f7 02 bd af b6 cc bc
       -0.06155394 0.014383824 -0.03197415 -0.024989454
000160 c2 15 92 3d 79 17 88 bc 17 21 9d bc eb c5 a2 3c
       0.07133056 -0.016612755 -0.019180818 0.019869765
000170 bc 83 b0 be 79 b3 23 3d eb a4 f4 bc 65 94 b5 3d
       -0.34475505 0.03996608 -0.029863795 0.08866195
000180 07 23 31 3d b6 cf 25 be f2 06 99 3d 8e 89 da 3c
       0.043246295 -0.16192517 0.07472028 0.02667692
000190 ab b6 6e bc fb 4c 24 3c 2a 5b 08 3d 5f b6 05 be
       -0.014569919 0.010028119 0.033290066 -0.1305785
0001a0 c6 7e 80 3d 4a d8 3d 3d 8b 21 a1 3d a4 69 5b bd
       0.0627418 0.046348847 0.07867726 -0.053567544
0001b0 be 94 fe 3d a2 7e b3 3d 42 0e 47 3d 0c 75 5a 3d
       0.12430714 0.08764388 0.04859758 0.05333428
0001c0 75 61 0f 39 72 dd 5d bd e5 d1 a5 bc 62 1b 69 3d
       0.00013673848 -0.054166265 -0.020241687 0.05691088
0001d0 cd 6b b8 3b c7 5a e5 bc 41 5c bf 3d 64 e1 ca be
       0.005628085 -0.027997388 0.09343768 -0.39625084
0001e0 26 79 ba 3c ab 51 5e 3c 67 88 a6 3d 9d 1e 2c bd
       0.022762846 0.013569276 0.081314854 -0.042021383
0001f0 c3 95 d5 3a 7f dd 3b 3c ca 14 4d 3d de 4b f0 bd
       0.0016295243 0.011466383 0.050068654 -0.117332205
000200 bc db 7c 3d 12 a2 a9 bd be b1 50 3d bc 42 95 3c
       0.061732993 -0.082828656 0.05095076 0.018220298
000210 36 04 98 bc 68 1f 60 3d 80 bf 16 be 3f 48 16 bd
       -0.018556695 0.05471745 -0.14721489 -0.036689993
000220 8d 7f 23 bd 20 54 e6 bd f6 e2 94 bd a0 f5 5b bd
       -0.039916564 -0.11246514 -0.07269852 -0.053701043
000230 2f 24 e1 bd 6b da 8e bd 32 ab fb 3d b6 64 66 3d
       -0.109932296 -0.06975254 0.12288512 0.05624839
000240 2b c8 0b bc 75 4b 07 be 32 2c 02 3e ca f0 9a bd
       -0.0085316105 -0.13212378 0.12712172 -0.07565458
000250 8f 27 33 be 0f 60 e7 3d 8e f3 b4 3d ff 4b a4 3c
       -0.17495559 0.112976186 0.08835517 0.020055769
000260 a7 77 74 bc 4e 67 f3 3d 9a a2 4d 3b 2d 29 9f 3d
       -0.0149211055 0.11884938 0.0031377436 0.077715255
000270 0b 2f 68 3c 1e 71 a1 bb 01 d6 06 3c 99 a9 0a 3d
       0.014171372 -0.0049268147 0.008229733 0.033853147
000280 03 11 a2 be 17 77 80 3b 78 0e dd 3c a1 fd 10 3e
       -0.31653604 0.0039204466 0.026984438 0.14159252
000290 b9 c6 6f be 31 05 ab 3d b6 98 96 3d 70 2f 58 bd
       -0.2341565 0.083505996 0.07353346 -0.052779615
0002a0 12 58 46 ba 16 ab 88 bd c6 4e 93 3c 93 1d 33 bd
       -0.0007566224 -0.06673257 0.017981898 -0.043729376
0002b0 12 e2 bb b9 14 da 4a bc 18 bc 21 bc d1 35 e9 ba
       -0.00035835855 -0.012381095 -0.009871505 -0.0017792528
0002c0 94 bf 0d 3d 6b b6 ce bb d0 f7 03 bd 4e 04 d6 bc
       0.03460653 -0.006308367 -0.032218754 -0.0261251
0002d0 b6 d1 f5 bb 1d 68 ad bc b6 fb e2 bc ff d8 3c be
       -0.007501806 -0.02116781 -0.027707916 -0.18442152
0002e0 4a d6 1f be 85 5e b0 bc d0 12 ba bd b4 94 07 3d
       -0.15609089 -0.021529445 -0.090856194 0.0331008
0002f0 8c 33 2b 3d 85 c5 33 bd ec 8c 94 bd ca bd cd 3a
       0.041797206 -0.04388954 -0.07253441 0.001569682
000300 ed 5e 45 bd 55 e7 15 3c c4 b7 2c 3d 75 66 30 3d
       -0.04818623 0.009149392 0.04216744 0.04306646
000310 04 db dd 3d ee 2b b2 bd 76 ae f6 3b c9 5d f8 3d
       0.108327895 -0.08699785 0.0075281216 0.12127263
000320 f1 74 18 bc f2 01 a6 3c 39 b4 9c bd 26 84 40 3a
       -0.009305225 0.0202646 -0.07651562 0.00073439104
000330 f8 12 c1 bb df c4 c5 bc f0 81 b2 bd 02 9a 8d 3d
       -0.005892154 -0.024141727 -0.0871619 0.0691414
000340 55 5e 1e 3d 90 c1 8c bd f9 f3 0b bd 85 77 86 3d
       0.03866418 -0.068728566 -0.034168217 0.06565765
000350 0d d0 ad 3d f9 2c 38 3d c8 82 fb 3c 4d 96 83 3c
       0.08486948 0.044964764 0.03070201 0.01606288
000360 ba b4 09 bd 70 3d 43 3d 5f f5 11 3d cb 83 4c 3d
       -0.03361962 0.047666013 0.035634395 0.049930375
000370 93 2a 57 3d 5f ca 96 3b c2 91 e3 3d f4 b4 8e bd
       0.052530836 0.0046017612 0.111117855 -0.06968108
000380 fe ba 31 3d 2d 38 ad 3d dc 14 eb bd 77 3f 02 bd
       0.04339122 0.0845798 -0.11478588 -0.031798806
000390 63 61 9e bc 66 fc 78 be e6 da 20 3d 6b f4 b5 be
       -0.019333547 -0.24315032 0.039271258 -0.3553804
0003a0 cd e2 a0 3c 3f 4b 66 3d 5e 5e 7b 3d 3a 55 43 be
       0.019639397 0.056224104 0.061369292 -0.1907548
0003b0 61 ea a4 bc 80 77 23 3d 37 cf 69 3d be fe c0 bb
       -0.020131292 0.039908886 0.05708238 -0.0058897426
0003c0 3c 3b 06 3c 8d 29 a8 3c ff 67 ee bb 78 1d 8a 3b
       0.0081928335 0.020527625 -0.007275581 0.0042149387
0003d0 83 ba 40 bd 71 b7 a3 ba 8f cb be bc 59 b6 53 bd
       -0.04705287 -0.0012490583 -0.023290424 -0.051687572
0003e0 38 d0 bc bc 8f d6 7d 3c c5 cf f9 3c aa d0 db be
       -0.023048505 0.015493049 0.03049458 -0.42932636
0003f0 96 97 8e 3c 07 83 4d bc a0 8e e5 bc 5f 6d 10 be
       0.017406266 -0.012543446 -0.02802211 -0.14104222

net.6.bias f4 [3]
000000 b9 f4 b4 be 66 90 92 be 9b 0d 47 bf
       -0.3534296 -0.28625792 -0.77755135
